app/artifacts/cnn/best.pt (torch, 400211 bytes, 17 tensors)

input_bn.weight f4 [7]
00000000: e995 6d3f e1cb 7a3f f826 703f 7fb7 7f3f
00000010: 58ee 843f 54cb 8a3f 0000 803f
0.9280687 0.97967345 0.9380946 0.9988937 1.0385237 1.0843301 1.0

input_bn.bias f4 [7]
00000000: dad9 42be d258 d3bc f2f4 0bbe 0820 8cbe
00000010: 8510 8f3c ee88 40bd 7107 f2be
-0.19028416 -0.025799189 -0.13667658 -0.27368188 0.017463932 -0.047005586 -0.47271302

input_bn.running_mean f4 [7]
00000000: 4c01 0b3e cc28 d83d 7a3f 5e3b 2e9c e4bc
00000010: d6bb 1340 628d 9444 0000 0000
0.13574713 0.105546564 0.0033912347 -0.027906504 2.3083396 1188.4182 0.0

input_bn.running_var f4 [7]
00000000: 33a2 8d3d 2e02 3a3d 9883 2943 e9fc f942
00000010: 856b 9043 abfd 914d 0400 0000
0.06915703 0.045412235 169.51404 124.993965 288.84 3.061651e+08 6e-45

feat.0.weight f4 [96, 7, 7]
00000000: 6e57 a73d 2497 b73d 93b1 61bd 4595 d93d
00000010: 38f6 5ebd d5e7 143c 03db b1bd 048e 6c3d
00000020: 8e6d b33d 73c7 16be 7911 bd3d 5533 29bc
00000030: 856e 943d 0441 19bc 0143 613d ec92 98ba
00000040: 2717 b93d 0216 e83c 7520 68bd 761b 893b
00000050: 1497 7bbd c47e 84bc 0b85 00be 8560 ca3d
00000060: 27f1 fdbd a35d 05be 54a7 57bd 78ac 9ebd
00000070: 1aea e93c 413c 10be 983b 273e 3147 0dbe
00000080: c0f7 0a3e a5b6 623d 13aa 2abd dac2 cf3d
00000090: c4e0 15bd 7f0a 1c3e f1fa 50bd 51dc d1bc
000000a0: 8641 a73d 0f91 57bd 8cba b03d da57 113e
000000b0: f3fb a63d 9bab 5bbd b6e3 f93d e984 b63d
000000c0: 7ad9 ea3d 2d5d 0dbd afcb ccbd 9d3d 92bc
000000d0: 6006 c1bd e91a 033e 5b2e 533d a850 8a3d
000000e0: c612 393d 6382 43bc 1f75 ef3d 7d21 e9bd
000000f0: e117 b33a 5583 c0bd 609f 4e3d 0bfd 20bd
00000100: 638f 56bb 79c9 02bd d7a7 553d 6345 8bbd
00000110: 5f9c 23be c779 06be a680 493e 83cd bf3d
00000120: 8bec 193e a514 3fbc 8ace d8bd ae9f b1bd
00000130: 73c8 fdbd 3742 a03a 1d94 5c3d 9608 1a3e
00000140: 369a f3bd f23b 08be b4db ba3d f453 3bbd
00000150: 07e7 de3c 4d2a 39bd 2ffc 123e 1214 a8bd
00000160: c9b6 4bbe fc9a 993d afe9 d83d d1b5 7a3d
00000170: 6ade f8bc 816e b0be 693e c2bd 2f87 19be
00000180: 8744 7b3d 9c9e d6bd 8a33 c2bd 5010 21be
00000190: aab8 c6bd 6c3d 963c 00f6 12bd f741 f8bd
000001a0: 1dfd 78bc c270 08be 9b26 f5bd 9bff acbd
000001b0: 7449 08be 8ce1 c9bd 32f4 093e 5e18 bc3c
000001c0: 5f0d 5b3d 8aa9 0bbe 5227 32bd 9c1b e4bc
000001d0: 3627 6d3d a5c0 9fbd f2c0 b8bd b41b a7bd
000001e0: 9127 30bd aa98 70bd 1392 69bd f88b d3bd
000001f0: 97b8 b0bd c334 e1bd 833b 54bd 1b90 05be
00000200: 0f3f ed3d 4f1d 98bc f85f fc3d 5130 3e3d
00000210: 701b 01be 67e7 a23d a717 66bd 40f0 5fbd
00000220: fb53 4dbd a4e9 0dbe ed80 1b3d ec8d cfbc
00000230: dfc3 2d3d a5b5 5ebe b230 c63c 7ef7 e0bd
00000240: 193f 353d 9a55 7f3d 86b4 e63d 5780 db3d
00000250: c557 f43d 5eb3 f0bd be02 103d 4951 75bd
00000260: 0f74 46bc 599d cfbd 3810 d83d 41e2 15be
00000270: 0b87 583d da77 143d 87ad bd3c ddc4 c8bd
00000280: 1e5e ea3d 9955 493d 4b19 223d f0c5 85bd
00000290: 07a9 833d afe8 3a3d e282 05bd 1703 b23d
000002a0: 5baa 203d 7528 84bd 7df2 60bd 3c7c dc3b
000002b0: 63f8 133e 08ed 9c3c 58d6 5cbd 89ff bebd
000002c0: 878b 2cbe 295a d23c 806a 993d 311c 36be
000002d0: 2877 a03a adf6 243d 2375 3d3c 0071 e1bd
000002e0: b376 623d 4901 c23d c18d c73c c454 7abd
000002f0: cdd9 e7bc 4287 443e 8c74 ce3e bd31 c93e
00000300: 45a1 a13d 8c99 853e b404 e13d 6b14 b13d
00000310: 3885 a13a 79f9 5bbc 295a e13c 56ac 1f3d
00000320: a5b0 00be 82eb 4fbd fec4 f63d f691 bf3d
00000330: effb f73c b30c 82bd 8528 57bd c489 b8bd
00000340: e207 0fbc 033b af3d 9117 8d3d e95c f53c
00000350: 33cc e8bd 0b35 9ebd c842 94bc 4208 d03c
00000360: 7a9e c9bc 068b 82bc b1db 903d 42b6 8cbd
00000370: 436c a9bd 4972 bf3d aa63 69bb 2cd4 8abd
00000380: fa0d 26be fe47 de3d 6060 b93d b13d 693c
00000390: ffec d7bd fe35 42be ad2f 29be 0b86 593d
000003a0: 48bb ae3d 6b48 453e cc45 c43d 9206 fe3c
000003b0: 40c4 b5bc 8910 3bbe c7ce f0bd 7f37 cfbe
000003c0: 1909 46bd 7a8b 83bd fa34 e53d 3881 babc
000003d0: 40d5 33bd 670a 6ebd d5be 99bd 587e 853d
000003e0: 253f d0bc 5aa9 cb3d 3359 cebc 3b73 aebd
000003f0: d4b8 96ba 0ba5 35bd 2cd6 64bd 2859 0abe
0.08170973 0.08964375 -0.05510099 0.10624174 -0.05443403 0.009088476 -0.08684351 0.057752624
0.0876113 -0.14724521 0.09231848 -0.01032718 0.072476424 -0.00935388 0.05499554 -0.0011640466
0.09037619 0.028330807 -0.05667158 0.004184182 -0.061423376 -0.016173728 -0.12550752 0.09881691
-0.12399512 -0.13024001 -0.05264981 -0.077477396 0.028554011 -0.14085485 0.16331327 -0.13796689
0.13571072 0.055349965 -0.0416661 0.10144587 -0.036591306 0.15238379 -0.051020566 -0.02561775
0.081667945 -0.052628573 0.08629331 0.14193669 0.08153524 -0.053630453 0.122016355 0.08912069
0.114672616 -0.034512687 -0.09999787 -0.017851645 -0.09425044 0.12803234 0.05155788 0.06753665
0.04518392 -0.011932942 0.11692261 -0.113833405 0.0013663733 -0.094000496 0.05044496 -0.03930382
-0.0032739274 -0.03193042 0.052162018 -0.06800344 -0.1597762 -0.13132392 0.19677982 0.0936537
0.1503164 -0.011662637 -0.10586269 -0.086730346 -0.12391748 0.0012226765 0.05385219 0.15042338
-0.11894648 -0.13304117 0.09123936 -0.04573436 0.027209772 -0.045206357 0.14354013 -0.08206953
-0.19893946 0.07500264 0.105914466 0.06120855 -0.030379493 -0.34459308 -0.0948456 -0.14992975
0.06134465 -0.10479471 -0.094824865 -0.15728879 -0.097031906 0.018339835 -0.035879135 -0.12121957
-0.015197066 -0.13324264 -0.11970254 -0.084471904 -0.1330927 -0.09857473 0.1347206 0.022960838
0.05347955 -0.13638893 -0.04349453 -0.027845196 0.057898723 -0.07800416 -0.090211764 -0.08159581
-0.043006483 -0.05873934 -0.057024073 -0.10329431 -0.08628958 -0.109963916 -0.051814567 -0.13043253
0.11584293 -0.018568663 0.12322992 0.046432797 -0.12608123 0.07954293 -0.0561749 -0.05467248
-0.05012892 -0.13858658 0.03796475 -0.025336228 0.042423125 -0.2174898 0.024193142 -0.109847054
0.044249628 0.062337495 0.11264901 0.10717838 0.11930803 -0.117529616 0.035158865 -0.059891973
-0.012112631 -0.101374336 0.105499685 -0.1463709 0.052863162 0.03624711 0.023154033 -0.09803174
0.11443733 0.049153898 0.039574903 -0.06531894 0.06428724 0.04563206 -0.032595523 0.086919956
0.039224964 -0.06453029 -0.054918755 0.006728677 0.14450221 0.019155994 -0.05391535 -0.09326083
-0.168501 0.025677757 0.074910164 -0.17784192 0.0012242543 0.04027431 0.011563572 -0.11007881
0.05528898 0.094729014 0.024359586 -0.061115995 -0.028302098 0.19192222 0.40323293 0.3929576
0.07892088 0.2609371 0.10987225 0.086464725 0.0012323027 -0.013426178 0.027508812 0.03898271
-0.12567385 -0.050761707 0.12049292 0.09354012 0.030271498 -0.063500784 -0.052528877 -0.09010652
-0.008729907 0.085561775 0.068892606 0.02995153 -0.11367073 -0.07724961 -0.01809825 0.025394563
-0.0246117 -0.015935432 0.07073153 -0.068707004 -0.082726024 0.0934797 -0.0035612383 -0.0677875
-0.16216269 0.10853575 0.09051585 0.0142359 -0.1054325 -0.18965909 -0.16522093 0.05310635
0.08531815 0.19265907 0.09583625 0.031008992 -0.022188306 -0.18268026 -0.1175819 -0.40472028
-0.04834852 -0.064230874 0.11191745 -0.022766694 -0.043904543 -0.05811539 -0.075071014 0.06518239
-0.025420735 0.099444106 -0.025189018 -0.08518072 -0.0011499175 -0.04434685 -0.055868313 -0.13510573

feat.0.bias f4 [96]
00000000: b8e7 993d efbb 353c 42e2 5e3d 2aea 173e
00000010: 0cc7 67bd 7fb6 85bd cef9 d13d c1a8 7b3d
00000020: f254 0abe ba2b 963d 6a67 f8bd 042a a6bd
00000030: e141 843d 7ce7 b53d d2be 54bc 04c6 093e
00000040: 5644 023e 67df f93d 8c03 ecbd bb68 35bd
00000050: f6eb 8dbb 288a e13d a8fb 25bc dd09 f73c
00000060: 3778 9d3d f0bc 95bd 410c c6bd 69d4 013e
00000070: 0a09 77bb d9d9 d23d 7995 26be 3969 72bd
00000080: 5243 db3d cb56 c3bc 831b e93c 8413 e9bd
00000090: 9b26 043e d736 aebd 8018 723b 9643 e3bd
000000a0: 78f1 4bbd bc8d f3bd f7c9 04be 127f 7abd
000000b0: 40ea a5bd 0c19 d43d d493 ee3a 2618 bb3d
000000c0: dd64 ddbc a4a0 e63c e2af 083e 8d80 aebd
000000d0: 9d0c 69bd 6ae2 e73d 9f7e 2dbd 51f0 61bd
000000e0: 8722 a5bc cd0d 8dbd 068f b93b 9c92 93bd
000000f0: 7b7f 523d 2876 e5bc 0eea 7cbd 7cab 49bd
00000100: e5a6 193d 5524 483d 2436 04be 2c2f d2bd
00000110: 61ce 06be d517 613d 1eef d83d 7297 edbd
00000120: 27fe 393d 1c3d 993c e539 8abd d915 353d
00000130: 33cc e63d df77 1b3e 3217 533d 1b0a 18bd
00000140: 3a81 b5bd 8c39 53bd f7f9 f73b 3efa 833c
00000150: ef32 e33d 73c1 f7bd 76ad 643c a715 94bd
00000160: f0ef 35bc 81e4 143e d7b0 53bc 647a ccbc
00000170: bd18 3bbd 7fda 13be 145e 1abe 0433 b43d
0.075149 0.01109217 0.054414995 0.1483542 -0.05658631 -0.06528949 0.102527246 0.061440233
-0.13508967 0.07332559 -0.121291 -0.081134826 0.06457878 0.08882043 -0.012984948 0.13454443
0.1272138 0.12200814 -0.11524114 -0.044289332 -0.0043311073 0.11012679 -0.0101308 0.03015607
0.07688945 -0.073114276 -0.09670306 0.12678684 -0.0037694597 0.102954574 -0.16267957 -0.05918238
0.107062 -0.023845097 0.028455501 -0.113806754 0.12905352 -0.085065536 0.0036940873 -0.11096875
-0.04979083 -0.11892268 -0.12967668 -0.06115634 -0.0810132 0.1035634 0.0018202015 0.09135465
-0.027025634 0.028152771 0.13348344 -0.08520613 -0.056896795 0.11322482 -0.042357083 -0.055160824
-0.020158065 -0.06887398 0.0056628017 -0.07205698 0.051391106 -0.028010443 -0.06174665 -0.049235806
0.03751268 0.048862774 -0.12911278 -0.102629036 -0.13164665 0.05495437 0.10592483 -0.116011515
0.045408394 0.018705897 -0.06749324 0.04421029 0.11269417 0.15182446 0.051535793 -0.037119012
-0.08862539 -0.051568553 0.00756764 0.016110536 0.11093699 -0.120974444 0.013957372 -0.07230692
-0.011104569 0.14540292 -0.01292058 -0.024960704 -0.04567789 -0.14438818 -0.1507495 0.08798793

feat.1.weight f4 [96]
00000000: 0de4 703f 5252 823f d6a2 783f 760e 7c3f
00000010: e5ac 843f 5c00 823f a529 863f f759 803f
00000020: af1e 823f c8dc 7d3f d27a 703f 9a5c 803f
00000030: f4aa 893f 6a2f 823f f58c 6c3f 1f7b 783f
00000040: 3ce2 823f b7f3 7a3f 507c 7f3f 6b5b 7c3f
00000050: abe6 8c3f 44d6 873f 359e 7b3f 03b8 793f
00000060: 2456 7b3f 3c04 7b3f 100c 873f 2971 7a3f
00000070: 99b4 7d3f 52e1 7c3f ca6e 833f b054 7b3f
00000080: 4998 823f 46b8 783f 38bc 7e3f 98a8 7d3f
00000090: 1a58 7a3f a5db 713f dbd8 773f 3933 7f3f
000000a0: 5ca6 7f3f 5172 813f e326 803f 0427 7b3f
000000b0: 4ee1 7f3f 3dff 793f 1ffa 7a3f cf68 7d3f
000000c0: 91fc 783f e0a4 7b3f 0ca2 743f 9abd 843f
000000d0: 3ecd 7d3f 5774 6a3f 3275 813f 13ae 7f3f
000000e0: 2bf3 743f 98d3 7c3f 4c32 793f 85c0 7b3f
000000f0: 9934 7b3f 300b 813f 2d6a 813f 1d11 7d3f
00000100: 3a30 7e3f 6336 763f c673 8a3f e0ff 6f3f
00000110: 7523 7e3f 4548 873f cb94 7e3f aed1 793f
00000120: aa6e 873f f193 743f 8339 7a3f 1315 7c3f
00000130: 6a89 823f b8d8 753f c709 753f 855f 813f
00000140: 70f1 773f da5f 793f b547 7c3f ffba 7f3f
00000150: 328a 7f3f 4f78 883f cf2a 803f 0301 863f
00000160: 2dc8 723f cc98 793f cb48 813f a8ec 863f
00000170: 1133 813f a4f1 803f 7afb 7a3f e61e 7a3f
0.9409798 1.0181372 0.9712347 0.98459566 1.0365263 1.015636 1.0481459 1.0027455
1.0165614 0.9916501 0.9393741 1.002826 1.0755296 1.017072 0.92402583 0.9706287
1.0225291 0.9802813 0.9979906 0.9857699 1.1007894 1.0612264 0.9828828 0.97546405
0.98178315 0.98053336 1.0550556 0.9782892 0.99103695 0.9878131 1.0268185 0.981761
1.0202724 0.9715618 0.9950595 0.9908538 0.9779068 0.94475776 0.9681527 0.99687535
0.9986322 1.0113012 1.0011867 0.9810641 0.9995316 0.9765509 0.98037905 0.9898805
0.97260386 0.98298454 0.95559764 1.0370362 0.991413 0.9158377 1.011389 0.9987499
0.95683545 0.98760366 0.9734237 0.98340636 0.9812713 1.0081539 1.0110527 0.9885424
0.9929234 0.9617674 1.0816581 0.9374981 0.99272853 1.056893 0.9944579 0.9758557
1.0580647 0.9553824 0.97744006 0.98469657 1.0198185 0.9603381 0.95718044 1.0107275
0.9685278 0.9741188 0.98546916 0.9989471 0.99820244 1.0661715 1.0013064 1.0469059
0.94836694 0.97498775 1.010034 1.0540972 1.0093709 1.0073743 0.9803997 0.977034

feat.1.bias f4 [96]
00000000: 626f 05bd 6e38 c43b e9e2 54bc 7a19 22bd
00000010: 3872 4ebc 3fa8 bdbc 4add 3f3c cf6b 0bbd
00000020: 9c01 0e3c 4793 aa3c 459b 97bc ebc2 57bd
00000030: 24d5 973c 0be0 56bc 93b3 ebbc 435e a2bd
00000040: 054f 593c 30f7 d4bc ea6e 363c d69b 17bd
00000050: c6ab 66bc c084 2fbd 211a 273c 5134 173c
00000060: 2e81 b13c 29dd e9bc 6df6 0cbd 8fb6 813c
00000070: d2c3 a0bc 9ee5 34bc 8fc0 5dbc 17e9 2abc
00000080: 9a3e 76bb 434d afbc a6e5 fcbc a453 44bb
00000090: f1c6 943c 5364 8ebc 4cf5 35bd 4a4e 97bc
000000a0: 6b9c 603c fddc 093b 44be 5a3a 6e8b f7bc
000000b0: a26e 2fbd 7d28 7fbb 4840 81bc 2b5d 0b3c
000000c0: cd4f 66bc ba1b 9fbc 0386 77bc fa72 91bc
000000d0: b6e2 2abc 01dd 35bc d9d5 d83c b02c 1ebc
000000e0: ff1d 36bd f342 0fbd 2285 47bc 5c90 283b
000000f0: 9d21 09bd 493f 0cbd a326 5c3c 26c5 5cbd
00000100: 92dd 16bb d5be 10bc adcb bf3c b278 35bd
00000110: d9b4 0d3a 9ae7 273c 8539 6abc c872 70bb
00000120: 2ee2 99bb 72b9 f0bc cfbe 71bb 885a f8bb
00000130: 5db1 813c 9fac 31bd 8252 b9bb 8a0c 53bb
00000140: e066 e7bb cff6 45bc 00cb 4cbd 8f69 3f3c
00000150: 5300 05bd 56c0 88bc 1493 713c c318 823b
00000160: ac20 96bb 5f6d 573c f3ef b4bc b323 a1bc
00000170: a622 aa3c 15f7 dcbc cf3e ebbb 0d9b 2c3c
-0.032576926 0.0059881723 -0.012993553 -0.039575078 -0.012600474 -0.023151515 0.011710474 -0.03403836
0.008667376 0.02082218 -0.018506655 -0.052676123 0.01853425 -0.013114939 -0.028772151 -0.07928135
0.013263469 -0.025996774 0.011134842 -0.03701385 -0.01407904 -0.04285121 0.010199101 0.009228782
0.021668043 -0.02854784 -0.034414697 0.015834121 -0.019624624 -0.011041073 -0.013534679 -0.0104315495
-0.0037573935 -0.021399146 -0.030871224 -0.002995708 0.018161269 -0.017381823 -0.044423386 -0.018469948
0.013709168 0.002103626 0.0008344392 -0.030217852 -0.042830117 -0.0038934045 -0.015777722 0.0085061
-0.014057112 -0.0194224 -0.0151076345 -0.01775502 -0.010430029 -0.011100055 0.026469158 -0.009654209
-0.0444622 -0.034975957 -0.012177737 0.002572081 -0.03347932 -0.03424004 0.013436946 -0.053898953
-0.002302025 -0.00883456 0.02341255 -0.044304557 0.00054056715 0.010248089 -0.01429594 -0.0036689509
-0.004696152 -0.029385302 -0.0036887412 -0.0075791515 0.015831644 -0.043377515 -0.0056555877 -0.0032203519
-0.007061824 -0.01208277 -0.049998283 0.011682882 -0.032471012 -0.016693275 0.014744539 0.003970237
-0.0045815315 0.013148635 -0.022087073 -0.019670343 0.020768475 -0.026973287 -0.007179118 0.010535014

feat.1.running_mean f4 [96]
00000000: bd1f f0bd d879 a03e afd0 bc3e a62e 19bf
00000010: 228f 743e 4bfb 4cbd 347f c43e 89de 463f
00000020: b771 17bf 0a44 c7bd 58be fabc ac1e 11be
00000030: 67db 0b3e 2c7a 8a3e 94d2 103f 3956 843c
00000040: debd b0bd dc56 24be 7875 c7bd edd5 a2bd
00000050: 7f24 d03e 9a9e d03e c8a8 743e bd67 953e
00000060: 3262 243e 6978 83be a4f0 11bf 9408 0c3f
00000070: 5d63 a93e c66b 84be 2ce4 69bd 3470 5bbe
00000080: 98f8 5fbe 38e9 523e 91f4 14bf 11bc 18bf
00000090: 2888 ea3e fa85 23bf adbb d8be 65dd d6bd
000000a0: 9afe 00be e9bf d53d a645 19be b670 20bf
000000b0: 97b0 49be 0aec 88bb e922 6e3d 8b01 d3bd
000000c0: 4dae ef3e 5207 863c b093 083f 84bd 3b3d
000000d0: 1c2d 52bf 06d3 293e 7a8d 4b3e eda9 d8be
000000e0: b782 6fbc e26b 5f3d b3f0 febd 57c9 0ebe
000000f0: 9967 06be db49 41be 2497 653e 369e d6be
00000100: 71a8 a4be 1415 8abe aebc 99be 76f2 a8be
00000110: cf16 16bf 5cd2 083f dfd7 a1bd 46b6 7cbd
00000120: 1bc8 f33e fac1 e63e 20c0 78be b074 c93b
00000130: ccdd 4e3f 76c3 9dbd f23d a93e 7551 3d3e
00000140: fdc6 2dbe a6f9 d13e f968 0cbf b69c 9fbe
00000150: 4243 e23d 2adf 4abe c2a4 dcbe a950 c6be
00000160: ee3f a93e 9f9e a03e 6453 c7be 2070 373f
00000170: be97 68bd 40da 1f3e 5b54 a5bd 24ef 7abe
-0.117248036 0.3134296 0.36877963 -0.59836805 0.23882726 -0.05004434 0.38378298 0.7768331
-0.5915789 -0.09729774 -0.030608341 -0.14171857 0.13657914 0.27046335 0.56571317 0.016154395
-0.08629964 -0.16048759 -0.09739202 -0.07950959 0.40652844 0.40746003 0.2389251 0.2918071
0.16053084 -0.25677803 -0.57007813 0.5470059 0.3308362 -0.25863475 -0.057102367 -0.21429521
-0.21872175 0.20596778 -0.5818568 -0.59661967 0.45807004 -0.63876307 -0.42330685 -0.104914464
-0.12597123 0.104369946 -0.14967975 -0.62671983 -0.1969627 -0.0041785287 0.05813876 -0.10303029
0.46812668 0.016360912 0.53350353 0.045835033 -0.8210008 0.16584405 0.19878188 -0.42317143
-0.014618567 0.054546244 -0.124482535 -0.13943993 -0.13125457 -0.1887583 0.22420937 -0.4191758
-0.3215976 -0.26969206 -0.30026764 -0.32997483 -0.58628553 0.5344598 -0.07902502 -0.061697267
0.47613606 0.45069867 -0.2429204 0.0061479434 0.80807185 -0.07703297 0.33055073 0.18488105
-0.1697044 0.4101078 -0.54847676 -0.31174248 0.11047985 -0.19811693 -0.4309445 -0.38733414
0.33056587 0.31371018 -0.3893081 0.71655464 -0.056785338 0.156106 -0.0807273 -0.24505287

feat.1.running_var f4 [96]
00000000: 2e81 b63e e4b8 b73e 53a4 4d3f c413 543e
00000010: 3db7 a23e efb1 853e f34b aa3e b527 cb3e
00000020: e9ed 503e a14e 653e b1cc 833e 849d aa3e
00000030: a6cf 933e 198c ad3e 28b7 c03e 509e 153e
00000040: 0ff6 7e3e ea0b e83e c89c 4d3e d339 9e3e
00000050: 3e32 3c3d 83eb 913e a257 8a3e f2cb 2d3e
00000060: 12e9 623e 110f ab3e a86f af3d cb0e 6c3e
00000070: 5a9d 5e3e 05f6 533e 70d5 813e 4001 7e3e
00000080: f1fb c53d 8edb 713e 9a22 3e3e 873b 833e
00000090: dcb3 1b3e 1db9 7a3e 731b ce3e de03 9f3e
000000a0: ad73 833e c981 963e c800 203e 183e 063f
000000b0: b148 6c3e 0575 3d3e e1d4 953e 17fd aa3e
000000c0: 8b80 a23e d338 753e a3e0 c43e 2d49 6b3e
000000d0: 5a78 203e dddb 403e 0284 083f 1131 523e
000000e0: 7f85 cf3e e664 7f3e 77bc 713e b040 473e
000000f0: f00c 6b3e 109c a93e 3626 4b3e b04b 5e3e
00000100: 8297 9d3e 1f19 a53e 45f8 d43e 2d51 413e
00000110: 3cc9 403e 06e0 923e 5b01 ce3e 7a22 2a3e
00000120: 2379 b63e e45c 933e 50d6 af3e 47ec ab3e
00000130: fb38 7b3e 2e38 d93e 46fa 833e c024 543e
00000140: 6134 2e3e 3877 bc3e f269 333e 2e49 803e
00000150: a2c1 683e 95eb 733e d466 473e 077e fd3d
00000160: 4a0d 913e 6a15 ec3e 1308 9f3e e535 bd3d
00000170: bbb7 d13e 7d75 b33e 4e9c b23e 42e8 743e
0.3564543 0.35883248 0.80328864 0.20710665 0.31780425 0.26112315 0.3326107 0.39678732
0.20403256 0.22393276 0.25742105 0.333233 0.2886936 0.3389595 0.37639737 0.14611173
0.24898551 0.4532159 0.20079339 0.3090349 0.045946352 0.28499994 0.27019984 0.1697233
0.22159222 0.33409932 0.085662186 0.23052518 0.21739712 0.20699318 0.25358152 0.24805164
0.09667195 0.2361891 0.18567887 0.25631353 0.1520533 0.24484678 0.40255317 0.31057638
0.2567419 0.29395893 0.15625298 0.524385 0.23074605 0.1850167 0.29263976 0.33396217
0.31738696 0.23947458 0.38452634 0.22977133 0.1567091 0.18833871 0.5332643 0.2052653
0.40531537 0.24940833 0.2360705 0.1945827 0.22954154 0.3312688 0.19838795 0.2170856
0.30779654 0.32245728 0.41595665 0.18878622 0.18826765 0.2868654 0.4023541 0.16614714
0.35639295 0.28781807 0.34343195 0.33578703 0.24533455 0.42425674 0.2577688 0.20717144
0.17012168 0.36809707 0.17520884 0.25055832 0.22730115 0.23820336 0.1947282 0.123775534
0.2833045 0.46110088 0.31060848 0.09238795 0.40960488 0.35050574 0.34884876 0.23916724

feat.3.weight f4 [192, 96, 5]
00000000: a29c e8bc d054 b93c 1b6a d1bb 8b26 443c
00000010: 7364 093d 3bcf 943c 2a1e 513d e7f6 3b3d
00000020: 3841 9f3b 352a 913d ee4e 4cbd a4c6 163d
00000030: 76e6 b8bc cbde d9bb 9e73 c33c d54b c13c
00000040: 432f 443d 2670 47bc e5ae 39bc b410 2e3d
00000050: c89c 3e3c d0ca 323d bab1 303d 8b2f 773d
00000060: f08e 963c 763d dcbc 57e2 5dbd 2f15 2abd
00000070: d6c7 0fbd 6c53 57bd 008b 3f3d 74f4 393d
00000080: 022d 123c 9221 bdbb 755b 803d 1023 41bd
00000090: 874a 023c 4e0a c63b 4c6e 1abd a7db 28bd
000000a0: a5c6 5a3d 0adf 48bc 359d a03d 3046 6f3c
000000b0: 6a56 d8ba 23f6 353b fa69 c2bc 62aa cf3c
000000c0: 9b4a 45bd c312 8dbc 9e2b 88bb f872 d13c
000000d0: ff1b d93b 0191 723c 7ff6 843c b108 343d
000000e0: be2f bcbb 034f 39bc ad3a 8c3a 7df4 e73c
000000f0: 30c2 d13c e598 2b3d 388d 973d 1b66 433d
00000100: 7c2e 3b3d 2399 213d 9038 153d a284 d63b
00000110: 779e 613c fd87 f93c 7055 993a d64f ed3c
00000120: 14d4 35ba 5e08 8bbc e103 f8bc e91f fcbc
00000130: 51d9 203c 002f 393d d152 b73b 9c62 76bb
00000140: 75ea 263d 3a8d 643c 8b8e 793d 67dc 75bc
00000150: ef49 1a3c c257 25bd 44d4 90bc 7bba 80bb
00000160: ca50 c53b b756 0abd 08a5 8fbc c7c2 d83a
00000170: ba57 94bc e1e4 33bc 735d 8a3c 7ce8 0fbd
00000180: 2109 353a 79c0 303c 7ba5 d0b9 c938 39bc
00000190: 7679 a2bd b4e1 8bbd ad3c 28bd ce3d 65bc
000001a0: ecb2 9fbb ecbf 863d 1fe6 993d f15d 073d
000001b0: b6e9 bb3c 0d1e d73c cf12 c4bc 4f32 973c
000001c0: 9948 b03b 77bd d2ba 4c4b a4bc 2343 b6bc
000001d0: dc32 febc d4f0 0fbd 0587 8d3c 1300 0abd
000001e0: 3102 bfbc 266d 80bd ea4c 22bd 10a6 8b3c
000001f0: a7ea 6c3b bb0f 14bc a906 b43c a562 013d
00000200: 3e76 c43c 26fe 34bd aede 72bd f29e c6bd
00000210: f87d 8dbd 5622 a8bb 0604 33bd f535 d6bc
00000220: d424 2539 2654 073d 997d 2cbd aedd 83bc
00000230: d59b bfbc ea4d e53c 0162 8e3c e532 993c
00000240: 7c20 be3c 5584 e1bb 50fe 083d f423 b63c
00000250: 0bd3 063d f390 0f3b d377 93bc cd8f 04bd
00000260: f9f6 23bd a340 5fbb a4ba 39bd dd50 263b
00000270: 99a1 fc3c 7014 a13c e9a8 a0bc e4b4 a4bc
00000280: f208 9f3c 9edf 4e3d 80b9 c53c 9ff5 823d
00000290: 1d7a 803c 512f 00bd a0ea 08bd 2902 3a3d
000002a0: 0d3f 203c 21a3 20bc fbed b1bc 4ce3 553d
000002b0: 1ed1 223d a2df 3abc 1591 9fbc 0065 833c
000002c0: 007b e03b 8962 3dbc 8ccd 65bd c8f2 e93b
000002d0: 89e5 65bc 83b1 4cbb 2c9b f1bc 3a3b 44bd
000002e0: fff7 78bd 1483 0b3d 04d8 263d 329a 0ebd
000002f0: c923 113d 198f f1bc 9dec 37bd 48ee 7a3c
00000300: 57f2 ac3c ecc6 ba3c db46 083b e60b b93c
00000310: 2ef2 86bd 8da7 d9ba 0c6c bebc 4cf3 dabb
00000320: 9082 cd3c 2cff 86bc f000 3d3d 040b 68bc
00000330: a069 533c f900 cebc d897 00bc 403d 963c
00000340: 128b 15bd 7a80 55bd 2a77 213d 20f0 253c
00000350: e3a4 ab3c d1f3 053d ac52 9e3c 84a0 0e3d
00000360: 8043 db3c 5a24 e8bb 51ab 753c c36a 393b
00000370: 4131 473d e472 1e3d cdf6 a7bc 41f9 c43c
00000380: 8b27 243d ac71 373d 3894 0b3d f91c 173d
00000390: 647e d83b 089e 453c fe6c 99bc 2c8a 6e3d
000003a0: e908 523d 9285 9ebc aed2 54bc 1f95 323d
000003b0: c055 06bd 1aaf 873c ef14 05bd 045b 1ebc
000003c0: b009 a2bc d3fe 063d 1fd0 54bc 8807 013d
000003d0: 8a3f 673b a878 c33c 781b c63b b34c 183c
000003e0: e853 bc3c 965c 36bc 1252 86bc 9f1b 123c
000003f0: 6a2d 1f3d 851c 9cbc f75d 1ebd 8763 88bd
-0.028395 0.02262345 -0.0063908226 0.01197208 0.03354306 0.018165221 0.051054157 0.04588976
0.0048600696 0.070881285 -0.04987996 0.036810532 -0.02257083 -0.0066488734 0.023858842 0.02359573
0.047896635 -0.012172734 -0.011333202 0.042496398 0.011634059 0.04365045 0.043138243 0.060348075
0.018378705 -0.026884776 -0.054170933 -0.04152411 -0.035102688 -0.05256979 0.04676342 0.045399144
0.0089218635 -0.005771824 0.06267444 -0.04715258 0.007952339 0.006043709 -0.037702844 -0.0412251
0.0534121 -0.012260208 0.07842485 0.014604136 -0.0016505246 0.0027765117 -0.023732174 0.0253498
-0.048166852 -0.01722086 -0.00415559 0.025567517 0.006625652 0.014805079 0.01623082 0.0439536
-0.005742996 -0.011310342 0.0010698639 0.028314823 0.025605291 0.04189386 0.07399982 0.047704797
0.045698628 0.039452683 0.036430895 0.006546573 0.013770691 0.030460352 0.0011698436 0.028968733
-0.0006936204 -0.016971763 -0.030275287 -0.030776935 0.009817437 0.04521084 0.0055945893 -0.0037595397
0.04075094 0.013949687 0.060926955 -0.015006161 0.009417041 -0.040366895 -0.017679341 -0.00392848
0.0060215937 -0.033774104 -0.017534748 0.001653754 -0.018108238 -0.010979862 0.016890263 -0.035133824
0.00069059624 0.010788077 -0.00039796144 -0.011305043 -0.07933323 -0.06830159 -0.04107349 -0.013991786
-0.004873624 0.06579575 0.07514595 0.033048574 0.02293859 0.026259447 -0.02393475 0.018456606
0.005379748 -0.0016078193 -0.020055436 -0.02224881 -0.031030111 -0.03514178 0.017276296 -0.033691477
-0.023316475 -0.062708184 -0.039624132 0.017046958 0.0036150606 -0.009036954 0.021975832 0.031588215
0.023982164 -0.044187687 -0.059294395 -0.09698285 -0.06908792 -0.0051310463 -0.04370501 -0.026148776
0.00015749346 0.033039235 -0.042111967 -0.016096916 -0.023389736 0.027991254 0.017380716 0.018701026
0.02320885 -0.0068822303 0.033445656 0.02223394 0.03291611 0.0021906465 -0.018001473 -0.0323637
-0.040030453 -0.0034065626 -0.04534401 0.0025377788 0.030838775 0.019663066 -0.019611793 -0.020105787
0.019413445 0.050506227 0.024136305 0.06394505 0.015683228 -0.031295124 -0.03342688 0.045412216
0.0097806575 -0.009804518 -0.021719923 0.05221872 0.03975021 -0.011405857 -0.01947836 0.016039371
0.0068506002 -0.011559137 -0.056104228 0.0071395375 -0.014031776 -0.0031233735 -0.029492937 -0.047908045
-0.060783383 0.034060553 0.040733352 -0.03481502 0.035434518 -0.02948718 -0.044903386 0.0153156
0.02111165 0.022799931 0.0020794186 0.022588681 -0.06589161 -0.001660572 -0.02324488 -0.0066818353
0.025086671 -0.016479097 0.046143472 -0.014162783 0.012903601 -0.025146948 -0.007848702 0.018339753
-0.03650958 -0.052124478 0.039420284 0.010128051 0.020952648 0.032703225 0.01932653 0.03482105
0.026765585 -0.0070844116 0.014994458 0.0028292395 0.048630957 0.038683787 -0.020503426 0.024044635
0.040076774 0.04478614 0.0340769 0.036892865 0.006606864 0.012061603 -0.01872873 0.05823724
0.05127803 -0.0193508 -0.012989683 0.043599244 -0.03279662 0.016562987 -0.032490667 -0.0096652545
-0.01978001 0.032957863 -0.012989073 0.031501323 0.0035285675 0.023861244 0.006045755 0.00929563
0.022989228 -0.011130473 -0.016396556 0.008917718 0.03886167 -0.019056568 -0.03866383 -0.06659608

feat.3.bias f4 [192]
00000000: 6804 ffbc 0f3b 223c b4a2 9a3c 3224 023c
00000010: 071b 383d 8011 223d 111a 2fbc be44 8a3c
00000020: cd28 1b3d 0717 583c a989 6a3c 2c02 483d
00000030: b517 00bc f24a 653c f764 8fbb 6fc1 debc
00000040: b69a 853c 0fdc 77bc be05 c2bb c1e4 e0bc
00000050: 2d8a 0dbd 3b18 27bd 94f9 8abc 68b4 773d
00000060: ebfd 0c3d 9383 08bd 534b f53c 18a6 0ebc
00000070: ac54 f6bc 7ab4 01bd 379f 8dbc 9c4f a93c
00000080: 8317 c43c 6216 023d 05ab 9c3c d2aa 3ebd
00000090: 0568 d2bc 0526 2a3d 80eb 10bd 62cf d23c
000000a0: 4769 303d 5b52 19bd 5a6f dd3a 501f 6c3d
000000b0: 9a31 2b3d b9be 993c df02 66bc 8efd b33c
000000c0: 4a25 103d cd71 5b3d 618c 28bd 79aa 9c3b
000000d0: a182 323d 9445 343d 3a30 9f3c 9e34 11bd
000000e0: 8508 cdbb 50fb c9bc 3f1b 7d3b e127 683c
000000f0: 608d 20bb b1e8 b5bc 3799 c33c b3cf 5b3c
00000100: 6162 e4bc 1fb4 f339 ae9c b03b 4a01 bf3c
00000110: 80c0 c5bc e1b6 a7bc 400f ae3c c278 123d
00000120: 3453 a1bc 2377 723c b0f0 263d 463d c7bc
00000130: e51f 143c 2920 da3c 54b6 573d 14f6 33bc
00000140: 26a3 6f3c d565 ac3c 686e f3bc 8937 333c
00000150: 6b42 953c f602 083c b875 edbb 0907 55bd
00000160: c128 6f3c 364c 90bc a7a6 903c 7727 a13c
00000170: 993e 04bd d47d 5bbd 6886 2ebc 0bed 493b
00000180: 2920 9bbc 3f79 593d f248 d23c 2114 6b3c
00000190: 5d45 0e3d a794 0abc 6ba3 903d 7e64 1ebc
000001a0: 8eae 0d3d 729a d23b 7caf 7cbc 3c76 ddbc
000001b0: 2ff0 19bd 7066 d1bc 632c c43c 4f58 f6bc
000001c0: 4363 08bd 24a6 d53c 488c 8fbc 820f 76bd
000001d0: 2505 0fbd dae6 593d 6185 243d 6885 eabc
000001e0: b1a2 d03c 5b48 f03c e60d 25bd 60c9 eabc
000001f0: 5093 ea3c 87c9 cdbc bc35 21bc 1dcc 64bd
00000200: 406c 863c a13a ab3c f9bc 15bd 9976 60bc
00000210: 0ccc 22bd 4ae7 6c3b 4767 5bbd 8451 b0bc
00000220: d518 383d 5b2f 68bc 4ce3 863c 61c5 cdbc
00000230: 2253 49bd 3d6d 76bd 20ba 90bb ee00 d93c
00000240: 4068 9cbc 82ff 363c 82ae f13c 0181 d8bb
00000250: 1be1 fabb 0a60 3d3d 59f6 b33c a99e 9dbb
00000260: a7ff f1bc 87e1 123d bf3a 403c 886e e43c
00000270: ab77 e53c 6940 d03c f4ea f9bc 0c4f 91bb
00000280: db50 18bd dfd7 80bb 59f8 603c c226 3cbb
00000290: d546 f9bc a9b7 96bc 1184 12bd dd42 a2ba
000002a0: 3177 5d3d 588f 973c 3be1 9b3c a532 c53b
000002b0: 627d 24bd 1ef1 3dbd d268 51bd 081b 97bc
000002c0: bf80 f73c 3c61 a2bc 9db4 e03c dd9a 623c
000002d0: d631 263d 76b3 53bc d31c bcbc a886 13bd
000002e0: c857 9d3c c9f3 113c 5e60 223d 267c 8ebc
000002f0: bf11 533b d38d f6bb 4cc7 123b 192c 193d
-0.03113003 0.009901776 0.018876411 0.0079432 0.04494765 0.03956747 -0.010687367 0.016878482
0.037880708 0.013189084 0.014315047 0.048830196 -0.007818152 0.013994919 -0.0043760496 -0.027191846
0.016309123 -0.01512815 -0.0059210947 -0.027452828 -0.034555603 -0.040794592 -0.016964711 0.060474783
0.034421843 -0.033328604 0.029943144 -0.008706592 -0.030069672 -0.031666256 -0.017287834 0.020667844
0.023936993 0.031759627 0.019124517 -0.046549626 -0.025684366 0.041540165 -0.03538084 0.025733653
0.04306915 -0.037432056 0.0016894147 0.05764705 0.04179535 0.018767701 -0.01403877 0.02197149
0.03519181 0.053575326 -0.0411495 0.004781064 0.04358161 0.044011667 0.019432176 -0.03545057
-0.006257119 -0.024655968 0.0038620976 0.014169664 -0.0024498329 -0.022205682 0.02387677 0.013416219
-0.027878942 0.00046482772 0.0053897714 0.023316044 -0.024139643 -0.020472946 0.021247506 0.035759695
-0.019692995 0.014798912 0.04075688 -0.02432121 0.009040807 0.026626663 0.052664116 -0.010983963
0.0146263 0.021044651 -0.029715732 0.010938534 0.018220147 0.008301487 -0.007246699 -0.052008662
0.014597119 -0.017614465 0.017657591 0.019672139 -0.03228626 -0.053586796 -0.010652162 0.0030811455
-0.018936234 0.053094145 0.025669549 0.014348061 0.03473412 -0.008458293 0.070624195 -0.009667514
0.034590296 0.0064271027 -0.015422698 -0.027033918 -0.037582573 -0.025561541 0.023946946 -0.030071406
-0.03329779 0.026080199 -0.017522946 -0.060073383 -0.034917016 0.053198673 0.040166263 -0.028628066
0.025468202 0.029331377 -0.040296458 -0.028660476 0.028634697 -0.02512051 -0.009839471 -0.05585872
0.01640904 0.02090198 -0.03655717 -0.013700151 -0.039745376 0.0036148601 -0.05356529 -0.021523245
0.044945557 -0.014171447 0.016465805 -0.025118532 -0.049151547 -0.06016277 -0.004416719 0.026489701
-0.019092679 0.011169316 0.029502157 -0.0066071753 -0.007656229 0.046234168 0.021968054 -0.0048101735
-0.02954085 0.03585961 0.011732756 0.027884737 0.028011164 0.025421338 -0.030507542 -0.004434472
-0.037186485 -0.003931984 0.013731086 -0.0028709625 -0.030429283 -0.018398123 -0.03577048 -0.0012379546
0.054068748 0.018500969 0.019028297 0.006018 -0.040158637 -0.046372525 -0.051125355 -0.018445507
0.030212758 -0.019821756 0.027429873 0.013830868 0.04057487 -0.012921205 -0.022962963 -0.03601709
0.019206896 0.008908221 0.039642684 -0.017393183 0.0032206622 -0.007524231 0.0022396622 0.03739557

feat.4.weight f4 [192]
00000000: 18c8 883f 8d5e 923f 723f 8d3f 84c7 883f
00000010: 1aec 903f 31ef 833f 1de3 953f 5f78 913f
00000020: e2a4 893f b15b 8c3f bc90 8f3f bb12 933f
00000030: 0b6e 8c3f 7081 893f e21d 8a3f dec1 8e3f
00000040: bfb5 853f dd75 8a3f a48b 883f f703 8d3f
00000050: 1b06 8d3f 59cc 923f 1df2 8a3f 3218 8b3f
00000060: cd92 8d3f a56a 843f 9864 913f 8513 913f
00000070: 23eb 8a3f 1f94 923f a939 853f aae8 8b3f
00000080: c6e7 903f 244a 923f 9b7c 933f d1ee 8b3f
00000090: 98a2 8e3f b71e 923f 90c4 8a3f 37de 853f
000000a0: 906e 8e3f 3b00 893f 4f61 853f 2c9d 8a3f
000000b0: 4bdb 983f 996b 963f 4f19 8f3f cf4e 8d3f
000000c0: 2a36 8c3f 221a 923f 9ea7 8c3f eaec 8b3f
000000d0: ec37 873f 415b 8d3f 83e9 953f 5689 8a3f
000000e0: f7fc 8b3f 2e13 8c3f aba9 853f a880 853f
000000f0: a805 8d3f 5209 923f f94d 8b3f 2ed9 8e3f
00000100: 1e3d 853f 9207 8c3f aebf 8c3f 705a 913f
00000110: 05f0 843f f16a 963f 3b2f 843f 0f59 8d3f
00000120: 03f4 913f fa91 8c3f 2e4a 8b3f ad46 8c3f
00000130: 6f6c 8b3f 936d 893f 4c10 893f d1fa 943f
00000140: 1047 883f 7c0e 863f c7b5 853f 8499 8b3f
00000150: 237e 853f 8172 893f 4022 8f3f 0f41 8e3f
00000160: 5c79 913f a5f1 8b3f eccd 863f 68ae 863f
00000170: d499 8b3f b877 8c3f 4feb 8b3f 1ea4 863f
00000180: b102 8b3f 1232 8b3f 9d79 8f3f 10f2 8b3f
00000190: 3f6d 893f ce79 8a3f cd19 893f 7a06 8c3f
000001a0: 537d 843f 3dfd 8a3f 8888 843f 599c 8a3f
000001b0: 6a8e 8c3f 6654 8c3f 32ff 863f 3c71 8d3f
000001c0: 5a89 8d3f 2297 8f3f 1dfc 8c3f bad3 9e3f
000001d0: 9373 893f 78f4 8d3f 6f43 843f 7cd7 8c3f
000001e0: 1b85 843f 85dd 893f b1f1 8c3f e0a7 8d3f
000001f0: e366 8c3f cc2a 903f c38f 943f 86fe 8d3f
00000200: 28fd 8c3f 9a0d 853f 0892 853f ba03 8f3f
00000210: 4152 8e3f 8b9f 8a3f b1b8 863f 7ffe 863f
00000220: fc85 8e3f 2dca 8f3f 3cac 883f 078a 943f
00000230: 98b0 903f 5a0e 883f e77d 8c3f b0b6 953f
00000240: 8eb0 953f d499 893f e290 923f 575c 8b3f
00000250: c7a0 883f 36af 8a3f 141f 893f 9eb8 893f
00000260: 35a1 8d3f aeab 883f 93e5 8e3f adbb 843f
00000270: 53d6 8b3f d2f8 843f 5e36 9b3f 3aa9 883f
00000280: e852 843f 9bc0 843f c0ee 8f3f f804 8e3f
00000290: 23d8 8a3f a3f0 8a3f 0539 883f 0463 8a3f
000002a0: 289b 8f3f 3b27 8a3f 436b 8b3f 6366 893f
000002b0: de52 853f 375f 8b3f e5bb 893f 3b55 8d3f
000002c0: 4a69 8c3f 6631 8d3f 317d 883f 6472 8b3f
000002d0: 1d0c 8f3f 3fda 883f 1b41 8d3f 88e8 8a3f
000002e0: ba68 883f 2c73 8e3f dd46 843f 3936 883f
000002f0: 03b0 8f3f a07a 8e3f 34f3 8b3f 14e3 853f
1.0686064 1.1435105 1.1034987 1.0685887 1.1322052 1.030737 1.1709934 1.1364859
1.0753443 1.0965482 1.1216044 1.1490091 1.0971082 1.0742626 1.079037 1.1152914
1.044609 1.0817219 1.0667615 1.1016835 1.1017488 1.1468612 1.0855137 1.0866759
1.1060425 1.0345045 1.1358824 1.1334082 1.0853008 1.1451453 1.0408221 1.0930378
1.1320732 1.1428876 1.1522402 1.0932256 1.114337 1.1415623 1.0841236 1.045844
1.1127491 1.0703195 1.0420321 1.0829215 1.1941923 1.1751586 1.1179599 1.1039675
1.095403 1.1414225 1.0988653 1.0931675 1.0563941 1.1043473 1.1711887 1.0823162
1.0936574 1.0943353 1.0442404 1.0429888 1.1017351 1.1409094 1.088317 1.1160028
1.0409276 1.093981 1.0995996 1.1355724 1.0385748 1.1751386 1.0326914 1.1042804
1.1402591 1.0982049 1.0882013 1.0959069 1.0892466 1.0736564 1.0708098 1.1639043
1.0646687 1.047317 1.0446099 1.0906224 1.0429119 1.0738069 1.1182327 1.1113604
1.1365161 1.0933119 1.0531592 1.0521975 1.090632 1.0974035 1.0931185 1.0518835
1.0860196 1.0874655 1.1208988 1.0933247 1.0736464 1.0818422 1.0710999 1.0939476
1.0350746 1.0858532 1.0354166 1.0828964 1.0980961 1.0963256 1.054663 1.1050181
1.1057541 1.1217997 1.1014439 1.2408364 1.0738395 1.1090231 1.0333079 1.1003261
1.035312 1.0770727 1.1011258 1.1066856 1.0968899 1.126306 1.1606373 1.1093299
1.1014757 1.0394776 1.043519 1.1173012 1.1118852 1.0829939 1.0525113 1.0546416
1.1134639 1.1233574 1.0677562 1.1604623 1.1303892 1.062938 1.0975922 1.1696377
1.1694505 1.075007 1.1450465 1.0887555 1.0674065 1.083472 1.0712609 1.0759466
1.1064821 1.0677392 1.116381 1.0369774 1.0924782 1.0388434 1.2125967 1.0676644
1.0337801 1.0371279 1.1244736 1.1095266 1.084721 1.0854686 1.0642401 1.0811467
1.1219225 1.0793222 1.0892109 1.0734371 1.0415914 1.0888432 1.0760466 1.1041635
1.0969632 1.10307 1.0663205 1.0894284 1.1175572 1.0691603 1.1035494 1.0852213
1.065696 1.1128898 1.0334126 1.0641547 1.122559 1.1131172 1.0933595 1.0459924

feat.4.bias f4 [192]
00000000: 30cd 97bc 19d5 4f3d f777 5c3d c736 d0bc
00000010: cade 843d 2f6d de3c a28f 273d b64c 29bd
00000020: 7915 c3bc e7f6 2e3d d7b9 20bd e8b2 6c3d
00000030: ab4e 553d b33d cf3c 19af e33c ee7b 383d
00000040: a534 fd3c 19ff d7bc bf90 debc cb0d 3bbd
00000050: a679 2b3d bf21 0f3d 4aa8 03bd f927 2a3d
00000060: bc53 3dbd 775a f33c 6c5e 3dbd a55a 603d
00000070: 0bbe febc 74e0 213d fb27 063d a4a7 35bd
00000080: 731e 64bd dbef 4c3d be4a 383d be01 533d
00000090: 9629 7cbd 9b54 223d 2fd6 0fbd 3c1b 003d
000000a0: 5379 4ebd b6d0 e4bc ad82 663c c31a d3bc
000000b0: 65d2 b43c 7312 5d3d adea 46bd 5907 1f3d
000000c0: 290c 0abd 0b5b 4e3d f9bf 1dbd 0f98 07bd
000000d0: aa48 06bd fd02 5a3d 54e2 323d 9214 b4bc
000000e0: 638f 12bd bc28 12bd 6f85 f93c 872b 073d
000000f0: f6cb 18bd ebba 523d b37c 09bd 9693 5d3d
00000100: 1e46 063d e4fd 31bd 3a8c efbc 278d 633d
00000110: 2d6e ec3c 939a 463d 22c0 b03c f91b 14bd
00000120: 2895 0f3d 4f49 453d 80ac 1abd 947d 3c3d
00000130: df33 00bd a51c 133d 466b 2ebd d61b 763d
00000140: 9fa6 9bbc 97e9 033d ef6f f63c 9bb7 dabc
00000150: 863a 083d b33e d1bc ccdf 6f3d d3cd 4d3d
00000160: 9342 1e3d e5a9 e1bc 4d8d a7bc af90 a0bc
00000170: 2e85 2fbd 363a 443d a86e 10bd a8ea 163d
00000180: 0fbe 0e3d d4d5 d2bc fa33 3b3d 7513 003d
00000190: ba6c fbbc f2a0 d2bc 0fa7 fabc 1894 513d
000001a0: 148d fe3c 0552 d5bc 8518 c83c 9c34 15bd
000001b0: 9665 13bd bd3a 24bd 66eb e3bc ee06 513d
000001c0: 32bd 443d 68bc 28bd a364 00bd ede1 223d
000001d0: 20d0 053d b1e5 483d 2d2b 133d 7fe1 e73c
000001e0: c9d7 df3c 59e5 bfbc afc9 13bd e13d 593d
000001f0: d2ec 11bd f219 753d 5b0f 793d 5ff5 44bd
00000200: 669f 41bd e8dd f23c ef2f 063d 5ac5 4f3d
00000210: 7cd8 26bd be8f 03bd 8c55 0b3d 960a 033d
00000220: 6d6b 223d 81dd 483d 7c56 023d b960 533d
00000230: 6852 5dbd ad2a f73c 23ba 1fbd cbf5 fd3c
00000240: ede7 443d d8a8 f23c 9683 263d 685a fabc
00000250: 9579 fe3c 2882 d6bc b52f e8bc a0ce 22bd
00000260: f847 20bd 7935 eebc 759d 453d fcf8 e03c
00000270: ce73 fabc fa9c f53c f39f 7a3d 2537 06bd
00000280: 098b e43c cae3 ec3c 3712 803d d8c5 283d
00000290: 1795 febc 9eb5 483d 88be 28bd 8045 c2bc
000002a0: 90a1 463d bbde 403d bc72 30bd 3e71 20bd
000002b0: 2304 103d 5b49 27bd 5fe6 c3bc c52f 41bd
000002c0: c054 143d 7fca e33c 2a2b babc 1427 06bd
000002d0: f4c8 1cbd bf27 b5bc 7a5b 11bd bf74 f2bc
000002e0: f8a0 fabc 80f0 5a3d 5848 ee3c c6dd cbbc
000002f0: 7de4 303d a3bb 473d 93a2 0abd 5007 093d
-0.018530458 0.050740335 0.053825345 -0.025416745 0.06487806 0.027151672 0.040908463 -0.041332923
-0.02381395 0.042715933 -0.03923973 0.057787806 0.052076977 0.025297975 0.027793454 0.045040064
0.030908892 -0.026366757 -0.02716863 -0.04566745 0.04186406 0.034944292 -0.032142915 0.041542027
-0.046222433 0.029706223 -0.046232626 0.054773945 -0.031096479 0.039520696 0.032752972 -0.044349328
-0.0556931 0.05003343 0.044993155 0.051515333 -0.061563097 0.039631467 -0.03511637 0.031275973
-0.050408673 -0.027931552 0.0140692415 -0.025769597 0.02207298 0.053972673 -0.048563648 0.038825367
-0.033703003 0.050379794 -0.038513158 -0.033104 -0.03278414 0.053225506 0.043672875 -0.021982465
-0.035781275 -0.03568338 0.030459134 0.033000495 -0.037303887 0.05144779 -0.033566188 0.054095827
0.032781713 -0.04345502 -0.02924167 0.055554535 0.02886113 0.048487257 0.021575991 -0.03615949
0.035054356 0.048165616 -0.037762165 0.046018198 -0.031299468 0.03591599 -0.042582773 0.06008514
-0.01900035 0.03220519 0.030082671 -0.026698878 0.033258937 -0.025542593 0.05856304 0.050245117
0.03863771 -0.027546832 -0.02045312 -0.01960024 -0.04285162 0.047907077 -0.03526178 0.03684488
0.034849223 -0.025736727 0.045703866 0.031268556 -0.030691493 -0.02571151 -0.030597238 0.051166624
0.03107313 -0.026040087 0.024425754 -0.036427125 -0.03598555 -0.04009508 -0.027822208 0.051032
0.048031993 -0.041195303 -0.031345975 0.03976624 0.032669187 0.049047176 0.035929848 0.028305767
0.027324574 -0.023424791 -0.036081012 0.053037528 -0.03562624 0.059839197 0.06080566 -0.048085567
-0.047271155 0.029646829 0.032760557 0.05072532 -0.0407338 -0.032119505 0.03401713 0.031992517
0.03965323 0.049039368 0.03182076 0.051605914 -0.054033667 0.030171717 -0.038995873 0.031000992
0.048072744 0.029621527 0.040652834 -0.030560687 0.031063834 -0.02618511 -0.028343061 -0.039747834
-0.039131135 -0.029078232 0.048245866 0.027462475 -0.030572798 0.029982079 0.061187696 -0.032767434
0.027898328 0.028917212 0.06253474 0.041204304 -0.031076951 0.04900133 -0.04119733 -0.02371478
0.04849392 0.047087412 -0.04307817 -0.039170496 0.035160195 -0.04084144 -0.02391356 -0.047164697
0.036213636 0.027806519 -0.02272566 -0.03275211 -0.03827758 -0.022113679 -0.03548763 -0.029596685
-0.030594334 0.053452015 0.02908723 -0.024886023 0.043186653 0.04876293 -0.03384645 0.03345424

feat.4.running_mean f4 [192]
00000000: 3726 21be 2dd7 07be 7f72 1cbd 5141 dcbd
00000010: 3447 41bd c41c e23e f9ba 96be d4d0 e6ba
00000020: 4795 81bd 06a9 dfbd e556 213c 143c dfbd
00000030: c266 08be aeec 87be cd7e 72be 32d7 4dbe
00000040: de0a 46be b661 11be dd2e eebd 26a9 b2bd
00000050: 4db1 18be 4fc5 9cbe e317 ddbd 4a59 81bd
00000060: 86ee a8bd 13d3 cc3d fc9e 0cbc 364b 28be
00000070: fe03 0fbe cf4c cebe f20c 733e 8166 82bd
00000080: 5b3d e5bb 43f8 eebd 5481 0abe 847a 23be
00000090: 8b01 b7bd 5112 13be c6ad 16be 6fe6 463e
000000a0: ec40 39bd 596e 5abe 00f5 99be 1fba 2abd
000000b0: d664 56be 921c 43be 0426 6cbd 6034 a3bd
000000c0: 7808 7ebc b1b4 95bd 8aa8 03be 30fe 82bd
000000d0: d0da 113e 42c5 89bd c3ea 38be a85d 90bd
000000e0: 7c24 85bd 6634 13be 51e7 b3be 8d54 a3be
000000f0: 51f0 19be 385d dbbd 5100 9bbd 90b5 ecbd
00000100: 3492 8bbe 71dc ccbd e4f2 b4bd 4731 f4bd
00000110: 4426 ac3e 2812 4abe 2404 e43e 8dc9 05bd
00000120: 62d0 a6be 3e6c 5fbd 00bb 9c3c 4f33 0abe
00000130: 02ca d5bd 0d8c 93be 0588 76bd 0b62 16be
00000140: 73b7 85bd f743 7d3e 37de 763e fc1f a0bd
00000150: f2e7 033e 6c49 04be a498 d5bd 28af 12be
00000160: 03f4 8abe 1aee dcbd 823d fabd 89d9 2bbe
00000170: a662 dabd eb06 14be 3856 afbd da47 1b3e
00000180: af85 c3be f9f8 15bd c550 26be ebe5 78be
00000190: 3c9e 99bd e69f e9bd 84fe 4bbc 7fbc e6bd
000001a0: 6f88 c83d ee95 b3bd 0ade 4bbe 5760 ffbd
000001b0: 1c4f dcbd fe1c 5ebd e985 08be 9b8d 08be
000001c0: 9d05 13be 0b9c cabb 8d7e 4dbd c797 8cbe
000001d0: b143 90be 7017 aebd 2b84 90be 1a69 adbe
000001e0: 3dd4 913e 7ecf 91bd bf9b f4bd 9c54 24be
000001f0: 9097 95bc 00c1 27be d8de 04be 8c00 0cbe
00000200: 3a7c 98bd 346c bd3e 7d6f ab3d e7bd 16be
00000210: 2c0a acbd d8be d1bc 321d a3bb e492 9dbe
00000220: 1889 cebd 9c60 00be 9d51 bdbe aa9d 6ebe
00000230: c6fa cbbd b287 b1be 87ea 8fbd 86f6 4fbe
00000240: d932 09be 1a7a 6cbe 93bc 1fbe ec90 d5bd
00000250: abfe e5be d308 9bbd 8751 9cbd 9267 a8bd
00000260: a0b5 e9bd a186 e2bd f6de a0bd cb55 603f
00000270: 4ca3 7dbd 26fa 3a3d 53ee 3fbe fe5b 15be
00000280: 154e a03e 519d e33d 1f45 68bd eb14 00be
00000290: 6e64 cdbd c2d2 aabd 0c1e dbbd 5b2a bdbd
000002a0: 3e48 a5bd 10a6 4abd 01a7 e4bd 0736 a1bd
000002b0: dd49 60be 4f51 07be 571c 11be 8862 91bd
000002c0: 7f51 c6be 3060 c9be e46b 09be 8e32 acbd
000002d0: 00d0 8aba a004 f5bd 2507 99bd 3eeb a6bd
000002e0: 788e e7bd ddb2 05be a580 e13e 1f97 b2bd
000002f0: 149b 57be 965c 15be 74d0 a6bd bf7a 313e
-0.15737234 -0.13265677 -0.03819513 -0.107546456 -0.047187045 0.4416257 -0.29439524 -0.0017609843
-0.063273005 -0.109209105 0.009847377 -0.10900131 -0.13320449 -0.2654776 -0.23681183 -0.20101622
-0.19340083 -0.1419743 -0.11630032 -0.08723669 -0.14911385 -0.30619285 -0.10795572 -0.06315859
-0.0824862 0.10001197 -0.008582827 -0.1643494 -0.13966367 -0.40292975 0.23735407 -0.06367207
-0.0069958395 -0.11668446 -0.13525897 -0.15964705 -0.08935841 -0.14362456 -0.14714727 0.19423841
-0.04522793 -0.21331157 -0.30069733 -0.041681405 -0.20936903 -0.19053867 -0.057653442 -0.07968974
-0.015504949 -0.07309855 -0.12857261 -0.06396139 0.14243627 -0.06727077 -0.18058304 -0.070491135
-0.065010995 -0.14375457 -0.35137418 -0.31900445 -0.1503308 -0.107111394 -0.0756842 -0.11558068
-0.27259982 -0.10002983 -0.0883539 -0.119234614 0.33622944 -0.19733489 0.4453441 -0.032662917
-0.32580858 -0.054546587 0.019132137 -0.13496135 -0.104389206 -0.28817788 -0.060188312 -0.14685838
-0.06529131 0.24732958 0.24108206 -0.078186005 0.12881449 -0.12918633 -0.104295045 -0.1432463
-0.2713929 -0.10787602 -0.12218763 -0.16782202 -0.10663347 -0.14455764 -0.08561367 0.15164128
-0.3818793 -0.036614392 -0.16241749 -0.24306457 -0.07500884 -0.11407451 -0.012450818 -0.112664215
0.09791648 -0.08768831 -0.1990892 -0.12469547 -0.107572764 -0.054226868 -0.13332333 -0.13335268
-0.1435761 -0.0061831526 -0.050169516 -0.27459547 -0.28176644 -0.08500564 -0.28225836 -0.3386925
0.28482237 -0.07119654 -0.11943769 -0.16047901 -0.018260747 -0.16382217 -0.12975633 -0.13672084
-0.07445569 0.36996615 0.08370874 -0.1472088 -0.08400378 -0.025603697 -0.0049778456 -0.3077613
-0.10084742 -0.12536854 -0.36976328 -0.23302332 -0.099599406 -0.3467384 -0.070271544 -0.20308885
-0.13398303 -0.23093453 -0.15599279 -0.10428032 -0.4492086 -0.075700425 -0.076327376 -0.082228795
-0.11411595 -0.11060835 -0.078550264 0.8763091 -0.06192331 0.045648716 -0.18743257 -0.14585873
0.31309572 0.1111399 -0.056706544 -0.1250798 -0.10028921 -0.0834098 -0.1069909 -0.09236594
-0.0807042 -0.049474776 -0.11164666 -0.07871633 -0.21903177 -0.1321461 -0.14170967 -0.070988715
-0.38734052 -0.39331198 -0.13420063 -0.0840808 -0.0010590553 -0.11963773 -0.07472066 -0.08150338
-0.11306471 -0.13056512 0.4404346 -0.0872023 -0.21055251 -0.145861 -0.08145228 0.1733198

feat.4.running_var f4 [192]
00000000: a066 003d 9b82 3d3d a15d 433d 9431 db3c
00000010: 9f16 3b3d 5ac4 b63e b113 653d a100 d63c
00000020: c3c9 e53c 3b84 283d eafc d03c e203 423d
00000030: a98a 2b3d 24fa 393d 3526 413d d63f 2d3d
00000040: 095a d73d 9203 ef3c a2cd ea3c 3596 da3c
00000050: 359c 643d 41d6 4c3d fceb d23c 958e 273d
00000060: c4b1 0b3d 810a 8e3e 6189 c73c b7ab 363d
00000070: f02a d93c 1b00 633d c073 a73e 39e0 e33c
00000080: 7087 e43c 39d1 1d3d 0767 1e3d 34a5 203d
00000090: 5c36 fa3c 03a9 343d 2d7c e93c 477b 683e
000000a0: c1d8 ee3c 714c 033d 0cbb 523d 9852 003d
000000b0: 6933 6c3d bf0a 453d 5473 dd3c cd59 353d
000000c0: bc80 cb3c 9809 3e3d 7dea c63c 2d37 ce3c
000000d0: 0f20 4c3d d049 1d3d f813 353d dff3 9a3c
000000e0: 1982 c73c ea00 e93c 2447 e03d 687b ff3d
000000f0: 283c 003d 452e 343d a47f d93c c2a4 263d
00000100: 507c cf3d 1ef9 c43c 8b90 fe3c 5c06 203d
00000110: 194b a23e 23b1 253d 280c 3b3f 3b62 d33c
00000120: 3074 7c3d 5ecd 413d 1114 c93c 38f3 253d
00000130: cb21 d43c d3ea 343d 3f1b e83c 716d 3a3d
00000140: 9318 fd3c 702a 343e 9471 5b3e 121d f93c
00000150: aafd 063e 776c fb3c 30f9 4c3d 6971 323d
00000160: aab3 453d 993d bf3c 9a55 f53c a5e9 ec3c
00000170: 5ad4 dc3c 920c 333d a72e ca3c 1446 433e
00000180: 3abb 5f3d 8b5b d23c d7bc 253d 0881 423d
00000190: 8d91 e03c a386 b83c 4ef5 d83c 3b36 423d
000001a0: 92c8 663e 4e7a d33c 052f 853d 93d8 bc3c
000001b0: d376 d23c 17f1 b43c 38c8 093d ff2b 443d
000001c0: 3a42 233d 7dba ce3c f2c5 c93c c3b7 7f3d
000001d0: 851c 503d 1ab6 353d d1d8 1f3e 7c23 2b3d
000001e0: fa35 923e b208 c63c 7699 cf3c fc5d 423d
000001f0: b9a6 b93c 684d 393d 02d7 593d 3de8 c93c
00000200: ea03 be3c 4d26 853e c6f0 913e 252d 2b3d
00000210: 07a4 e43c 6636 d83c 0631 f33d 1fb4 b73d
00000220: 88c0 153d 0b4c 143d fad6 793d 6641 1f3d
00000230: a768 003d d857 403d 18ba e13c 2efa 4b3d
00000240: 3f8d 153d 7f38 473d 8ab0 293d a907 e73c
00000250: 3673 8f3d 2491 d83c 5d7d eb3c ff77 d53c
00000260: d4ae da3c 57b4 f43c fdc9 273d fcaf 6b3f
00000270: 2837 cd3c fd14 1e3e c271 453d 16fb ea3c
00000280: f7e0 0b3f 484f 843e f264 5a3d 190a 353d
00000290: 181e d83c 4aa9 3b3d 679c 253e 0144 d63c
000002a0: 7b35 313d b039 143d 2a79 fb3c d01a c93c
000002b0: f622 8e3d f1c5 003d 9833 df3c 04fd ca3c
000002c0: 38cb e03d 83b6 6f3d fe8d ec3c f9b5 ec3c
000002d0: 0a9c e23c 6240 c93c 539a d53c ab79 a73c
000002e0: beb6 bc3c 3c85 263d 1bd9 ae3e 0e73 c13c
000002f0: c4c1 213d b8ee 0a3d 4b80 d53c e617 003e
0.03134787 0.046267133 0.047696713 0.02675704 0.04567587 0.3569668 0.055926982 0.026123347
0.028050309 0.04114173 0.025511224 0.047366984 0.041880284 0.04540457 0.047155578 0.042297207
0.1051522 0.029176507 0.028662506 0.026682952 0.055813033 0.050009016 0.025747292 0.04090746
0.034105077 0.2774239 0.0243575 0.044597354 0.026509732 0.055420022 0.32705498 0.027816879
0.027896613 0.03852961 0.038672473 0.03922005 0.030543499 0.044106495 0.028501594 0.22703277
0.02915609 0.032055322 0.051447913 0.031328768 0.057666216 0.04810595 0.027032532 0.044275094
0.024841659 0.046395868 0.024281735 0.025172794 0.04983526 0.03840047 0.044208497 0.018915115
0.024354028 0.028442819 0.10951069 0.1247471 0.03130737 0.04398944 0.026550122 0.04068447
0.101311326 0.02404457 0.031074783 0.039068565 0.3169792 0.040452134 0.73065424 0.025803676
0.061634243 0.047314994 0.024545701 0.040515155 0.02589502 0.04416926 0.028333304 0.045514528
0.030895507 0.17594314 0.21430045 0.03040937 0.13182703 0.030691369 0.05004233 0.043565188
0.048267044 0.023344802 0.029948045 0.028920004 0.026956726 0.04371316 0.024680449 0.19069701
0.054621913 0.025678417 0.040463295 0.047486335 0.027413154 0.022525137 0.026484158 0.047415
0.22537449 0.025815155 0.06503109 0.02305249 0.025691425 0.022087617 0.03363821 0.04789352
0.03985808 0.025235409 0.02463052 0.06243111 0.05080845 0.04436312 0.15610053 0.041781887
0.28556806 0.024174068 0.02534173 0.04745291 0.022662507 0.045239836 0.053183563 0.024646873
0.023195226 0.26005784 0.28504008 0.0417911 0.027910246 0.026393127 0.11874585 0.08969902
0.036560565 0.036205333 0.060996033 0.03888073 0.031349804 0.046958774 0.027554557 0.049799137
0.036511656 0.048637863 0.041428126 0.028201895 0.070043966 0.026436396 0.028746301 0.026058195
0.026694693 0.029871149 0.040964115 0.92065406 0.025050715 0.15437694 0.04820419 0.02868418
0.54640144 0.25841737 0.053318925 0.044199083 0.026381537 0.045815744 0.16172944 0.026155474
0.043263894 0.036187828 0.030697424 0.024548918 0.06940262 0.03143877 0.027246282 0.02477885
0.10976261 0.058523666 0.0288763 0.028895365 0.027662296 0.024566833 0.026074564 0.020443758
0.023036357 0.040654406 0.34150013 0.023614433 0.03949143 0.033919066 0.026062151 0.12509117
